…
//localhost:8080/"},"id":"Ie7wrrMS_6Qf","executionInfo":{"status":"ok","timestamp":1657475959884,"user_tz":-180,"elapsed":27,"user":{"displayName":"Phosteve Sachieng","userId":"17290058021993400429"}},"outputId":"98880075-d550-48a3-bbbf-f04742a34b01"},"execution_count":48,"outputs":[{"output_type":"stream","name":"stdout","text":["Model: \"sequential_3\"\n","_________________________________________________________________\n"," Layer (type)                Output Shape              Param #   \n","=================================================================\n"," conv2d_12 (Conv2D)          (None, 148, 148, 32)      896       \n","                                                                 \n"," max_pooling2d_12 (MaxPoolin  (None, 74, 74, 32)       0         \n"," g2D)                                                            \n","                                                                 \n"," conv2d_13 (Conv2D)          (None, 72, 72, 64)        18496     \n","                                                                 \n"," max_pooling2d_13 (MaxPoolin  (None, 36, 36, 64)       0         \n"," g2D)                                                            \n","                                                                 \n"," conv2d_14 (Conv2D)          (None, 34, 34, 128)       73856     \n","                                                                 \n"," max_pooling2d_14 (MaxPoolin  (None, 17, 17, 128)      0         \n"," g2D)                                                            \n","                                                                 \n"," conv2d_15 (Conv2D)          (None, 15, 15, 128)       147584    \n","                                                                 \n"," max_pooling2d_15 (MaxPoolin  (None, 7, 7, 128)        0         \n"," g2D)                                                            \n","                                                                 \n"," dropout_3 (Dropout)         (None, 7, 7, 128)         0         \n","                                                                 \n"," flatten_3 (Flatten)         (None, 6272)              0         \n","                                                                 \n"," dense_6 (Dense)             (None, 512)               3211776   \n","                                                                 \n"," dense_7 (Dense)             (None, 2)                 1026      \n","                                                                 \n","=================================================================\n","Total params: 3,453,634\n","Trainable params: 3,453,634\n","Non-trainable params: 0\n","_________________________________________________________________\n"]}]},{"cell_type":"code","source":["epochs=100\n","history = model.fit_generator(\n","    tra
…
